…
    "papermill": {
     "duration": 0.044846,
     "end_time": "2022-05-08T16:38:43.626820",
     "exception": false,
     "start_time": "2022-05-08T16:38:43.581974",
     "status": "completed"
    },
    "tags": []
   },
   "outputs": [
    {
     "name": "stdout",
     "output_type": "stream",
     "text": [
      "Model: \"sequential\"\n",
      "_________________________________________________________________\n",
      "Layer (type)                 Output Shape              Param #   \n",
      "=================================================================\n",
      "conv2d (Conv2D)              (None, 28, 28, 80)        2080      \n",
      "_________________________________________________________________\n",
      "max_pooling2d (MaxPooling2D) (None, 14, 14, 80)        0         \n",
      "_________________________________________________________________\n",
      "conv2d_1 (Conv2D)            (None, 10, 10, 64)        128064    \n",
      "_________________________________________________________________\n",
      "max_pooling2d_1 (MaxPooling2 (None, 5, 5, 64)          0         \n",
      "_________________________________________________________________\n",
      "flatten (Flatten)            (None, 1600)              0         \n",
      "_________________________________________________________________\n",
      "featurs (Dense)              (None, 1024)              1639424   \n",
      "_________________________________________________________________\n",
      "dense (Dense)                (None, 28)                28700     \n",
      "=================================================================\n",
      "Total params: 1,798,268\n",
      "Trainable params: 1,798,268\n",
      "Non-trainable params: 0\n",
      "_________________________________________________________________\n"
     ]
    }
   ],
   "source": [
    "model.summary()"
   ]
  },
  {
   "cell_type": "code",
   "execution_count": 12,
   "id": "9fb566a0",
…
